model/save.pt (torch, 521299 bytes, 7 tensors)

encoder.weight f4 [195, 100]
0	0x3f6a4032	0.91504204
1	0xbe3d4ce0	-0.18486357
2	0xbfdea938	-1.7395391
3	0xbf39a967	-0.7252411
4	0xbdc3f407	-0.09568029
5	0x3eeda8af	0.46417758
6	0x400972bf	2.1476285
7	0x400b5db6	2.1775947
8	0xbd5367ad	-0.051612545
9	0xbf8cf469	-1.1012088
10	0xbf2a4d6b	-0.6652438
11	0x3fa916d3	1.321009
12	0x3ffedbbe	1.991081
13	0x3f3ee485	0.74567443
14	0x3f10ae95	0.5651639
15	0xbfec5ff4	-1.8466783
16	0x3f0e1dd6	0.55514276
17	0xbf94b181	-1.161667
18	0x3e635b4e	0.22202799
19	0xbfb34040	-1.4003983
20	0x40026c49	2.0378592
21	0xbdccf87f	-0.10008334
22	0x40096017	2.1464899
23	0x3f839e9a	1.0282776
24	0x3f35de91	0.71042734
25	0x3fdd10a1	1.72707
26	0xbd45d29b	-0.048296552
27	0x3f4ac5a3	0.7920782
28	0xbf63f738	-0.890491
29	0x3e12dfe9	0.14343227
30	0x3ec63b0b	0.3871692
31	0xbf7d9acf	-0.99064344
32	0x3ee2cd5f	0.4429731
33	0x3fb1b7db	1.3884233
34	0x3fa63a14	1.2986474
35	0x3f71af65	0.94408256
36	0x3d06b7b2	0.03289003
37	0xbf4868fa	-0.7828518
38	0xbf1997a5	-0.59997016
39	0x3f7980b9	0.9746204
40	0xbf53526b	-0.82547635
41	0x3f998cb3	1.1996063
42	0x3f16619a	0.5874268
43	0x3f8a9024	1.0825238
44	0xbdf04c5b	-0.11733314
45	0xbf555ccc	-0.8334472
46	0x3f88bd6e	1.0682809
47	0xbf7e7317	-0.99394363
48	0x3f21b8b4	0.6317246
49	0xbf1758bc	-0.5911977
50	0xbfabca28	-1.3421068
51	0x3f7e16dd	0.99253637
52	0xc028dcde	-2.6384807
53	0xbf4a50c5	-0.79029495
54	0x3fcbe15b	1.5928148
55	0x3e511d04	0.20421225
56	0xbed0c9fd	-0.40779105
57	0xc0138b15	-2.305364
58	0x3ef885f6	0.48539704
59	0x3eb8aeb5	0.3607079
60	0xbf5e6174	-0.8686745
61	0xbdbf0522	-0.09327151
62	0xbf2383f3	-0.63873214
63	0xbd5ee300	-0.054415703
64	0xbf34a2fa	-0.7056118
65	0xbec1c5ce	-0.37846226
66	0xbf5811a6	-0.8440193
67	0xbe0c82eb	-0.13721816
68	0x3e150784	0.14553648
69	0x3d34c3a6	0.044131897
70	0xbf3bbba9	-0.7333322
71	0xbe86bf39	-0.26317766
72	0xbe11035c	-0.14161438
73	0xbf61e712	-0.8824321
74	0xbf81b1e9	-1.0132419
75	0xbf152a74	-0.58267903
76	0xbf91a9f3	-1.1379989
77	0x3cb9f30d	0.022698903
78	0x3ec12b4a	0.3772834
79	0x3fab705f	1.3393668
80	0x3f2b9f6d	0.6704014
81	0x3f4bcbdc	0.7960794
82	0xbeae8a3a	-0.34089833
83	0xbe96e4a8	-0.29471326
84	0x3f9c99a3	1.2234386
85	0x3bf17722	0.007368938
86	0xbc4fff01	-0.012695075
87	0xbef5aabc	-0.47981822
88	0x3f86f4b0	1.0543423
89	0x3f3e2ef5	0.742904
90	0x3e98ee15	0.29869142
91	0xbb69e832	-0.0035691378
92	0xbf508e81	-0.81467444
93	0x3e56c537	0.20973669
94	0x3f0535cd	0.5203522
95	0xbf442f2f	-0.76634496
96	0x3e3cd0d5	0.18439038
97	0x3ec843d4	0.3911425
98	0xbe27b48f	-0.16377471
99	0xbe88862a	-0.2666486
100	0xbf130cee	-0.57441604
101	0xbf609642	-0.87729275
102	0x3f782a99	0.9694
103	0x3e60bdeb	0.21947448
104	0x3f5c9cd7	0.8617682
105	0x3fd1eb3a	1.639991
106	0xbfc1d74c	-1.5143828
107	0xbe18a81c	-0.14907879
108	0xbdf77b54	-0.1208407
109	0x3faa6c23	1.3314251
110	0x3e76ad6a	0.2408959
111	0xc011f560	-2.2806015
112	0xbf270fcd	-0.65258485
113	0xbecefa8d	-0.4042553
114	0xbfd4f5e3	-1.6637539
115	0xbfa8196f	-1.3132762
116	0xc018510e	-2.3799472
117	0xbf903ead	-1.1269127
118	0x3f9d31d3	1.228083
119	0xbde69e7a	-0.11260696
120	0xbf1dfd2c	-0.61714435
121	0xbf3c5b6b	-0.7357699
122	0xbf722471	-0.94586855
123	0x3eeb133e	0.45913118
124	0xbcfcc20a	-0.030854244
125	0xbedd89e8	-0.43269277
126	0xbc5c7b53	-0.013457137
127	0xbfd67152	-1.6753333
128	0x3edc2b42	0.43001753
129	0x3f11cedb	0.5695626
130	0xbf2c3604	-0.6726992
131	0x3fc63428	1.5484667
132	0xbe6ee713	-0.23330335
133	0xbfc57f5b	-1.5429491
134	0x3cbeae26	0.0232764
135	0x3fb7bf61	1.4355279
136	0xbef66685	-0.4812509
137	0x3fe33f20	1.7753639
138	0xbdf39071	-0.118927844
139	0x400228ed	2.033748
140	0xbf12e537	-0.57381004
141	0xbe877ce6	-0.26462477
142	0x3f29970f	0.6624612
143	0x3f4b10fd	0.793228
144	0x3ea79ca1	0.32736686
145	0xbf347492	-0.7049037
146	0x3fae91d3	1.3638252
147	0xbdc017b2	-0.093795195
148	0xbf21e02e	-0.63232696
149	0x3f64b30d	0.8933571
150	0xbfb77822	-1.4333537
151	0x3faed1e0	1.3657799
152	0x3f8564da	1.0421402
153	0xbf796dff	-0.97433466
154	0xbf0dba38	-0.5536227
155	0x3d861f63	0.06548955
156	0x3f331221	0.6994954
157	0xbfea7700	-1.8317566
158	0xbf87d808	-1.0612803
159	0xbd7e191d	-0.06203567
160	0x3dc8c506	0.09803204
161	0x3f2e9226	0.68191755
162	0x3f4da9f1	0.80337435
163	0xbe6ed4d3	-0.23323373
164	0x3e22d30f	0.15900825
165	0x3f82cab3	1.0218109
166	0xbdcf425c	-0.10120079
167	0x3ef47c25	0.47750965
168	0x3fe67e4e	1.8007295
169	0x3f0c153c	0.547199
170	0xbd495770	-0.049155653
171	0xbdd87421	-0.10569025
172	0x3fad747c	1.3551173
173	0x3f10141b	0.5628068
174	0x3ecdc2cb	0.40187678
175	0xbe1940a8	-0.1496607
176	0xbdd938ff	-0.10606574
177	0xc0381521	-2.8762896
178	0xbeedc416	-0.46438664
179	0x3fde0ff0	1.7348614
180	0xbef5508a	-0.4791301
181	0x3f1ab4e1	0.6043225
182	0xbf7e9e2d	-0.9946011
183	0x400e7081	2.2256167
184	0xbf0fa0fc	-0.5610502
185	0xbf4c04c2	-0.7969476
186	0xbf92f1b4	-1.1480012
187	0xbecee8a4	-0.40411866
188	0xbd259579	-0.04042575
189	0xbf55b018	-0.8347182
190	0xbf2d63ca	-0.6773039
191	0x3ea8696e	0.32892936
192	0xbf4e9ad1	-0.8070498
193	0x3e3dc83f	0.18533419
194	0x3e978869	0.2959626
195	0x3d9d9ed2	0.07696308
196	0xbf25837b	-0.6465375
197	0xbeb1d0a0	-0.3472948
198	0xbfa8e492	-1.3194754
199	0x3eafc65c	0.34331024
200	0x3f43ab45	0.7643321
201	0xbffa36c7	-1.9547967
202	0xbf14b993	-0.58095664
203	0xbe5da0d2	-0.2164338
204	0xbfe37bfd	-1.7772213
205	0x3e4e3739	0.20138253
206	0x3cc381e1	0.023865642
207	0x3f4c9145	0.79909164
208	0xbf1cd6d0	-0.6126528
209	0xbdf3a58c	-0.1189681
210	0xbf0690b8	-0.52564573
211	0x3f396879	0.7242504
212	0x3dff83d1	0.12476314
213	0x40086d0e	2.1316562
214	0x3e961309	0.29311398
215	0xbfa39e43	-1.2782673
216	0xbe40d2c6	-0.18830404
217	0xbe09f5af	-0.13472627
218	0x3f516fdd	0.81811315
219	0x3fe95933	1.8230346
220	0xbf9e4b66	-1.236676
221	0xbf550923	-0.83217067
222	0x3fe124f3	1.7589401
223	0xbfe3353b	-1.775062
224	0x3fc18f9b	1.512195
225	0xbebd6582	-0.36991507
226	0xbf281b25	-0.6566642
227	0xbedbf6ff	-0.4296188
228	0x3f550a9a	0.832193
229	0x3f4ce281	0.8003312
230	0xbfe93eb5	-1.8222262
231	0xbfff4142	-1.994179
232	0xbff9d013	-1.9516624
233	0x3fd591dd	1.6685139
234	0x3e62791c	0.22116512
235	0xbf92b6bb	-1.1462015
236	0xbada57f8	-0.0016658297
237	0x401711af	2.3604543
238	0x3f86ec95	1.0540949
239	0xc0290a9a	-2.641272
240	0x3e617368	0.2201668
241	0xbf62b419	-0.8855606
242	0x3e009585	0.12557037
243	0x3ebf6d85	0.37388244
244	0xbee75010	-0.4517827
245	0xbfce8a6c	-1.6135993
246	0xbf0921c4	-0.5356715
247	0xbfe2bddb	-1.7714189
248	0x3fa46ab2	1.2845061
249	0xbf329469	-0.69757706
250	0x3f2a38ab	0.6649272
251	0xc01a3d38	-2.4099865
252	0xbf92c10c	-1.1465163
253	0xbaf50430	-0.0018693265
254	0x3f245241	0.6418801
255	0xbfcfab9f	-1.622425

gru.weight_ih_l0 f4 [300, 200]
0	0x3d83f6ee	0.064435825
1	0x3d17ec6c	0.037090704
2	0xbd11c52d	-0.035588432
3	0xbd533b64	-0.05157031
4	0x3d9e738f	0.07736885
5	0x3ca93512	0.020655189
6	0x3caf71ab	0.021416506
7	0xbcf259e9	-0.029583888
8	0xbb3e8acc	-0.0029074429
9	0xbc88ac71	-0.016683789
10	0x3b9b23aa	0.004734476
11	0x3da43374	0.080176264
12	0x3c6cb3cd	0.014447165
13	0x3e3d51df	0.18488263
14	0x3e239b80	0.15977287
15	0x3e02259d	0.12709661
16	0x3d315856	0.043297134
17	0xbdbac06b	-0.09118732
18	0x3d9fc557	0.078013115
19	0x3d16dd97	0.03683242
20	0xbda47b26	-0.08031301
21	0x3d6da000	0.058013916
22	0xbd992c67	-0.07479172
23	0x3daa5494	0.08316913
24	0xbce7a454	-0.0282766
25	0x3d972864	0.07380751
26	0xbc09354c	-0.008374523
27	0x3dd9282b	0.106033646
28	0x3dbda7ca	0.09260519
29	0x3d860d83	0.06545546
30	0x3dd46fb5	0.10372869
31	0x3cb22edd	0.021750862
32	0x3c73f5c9	0.014890143
33	0xbcb20d5a	-0.021734882
34	0x3d1d7cfd	0.038449276
35	0x3d856814	0.06513992
36	0x3c5b5814	0.013387699
37	0x3de680bf	0.11255025
38	0x3cb2854e	0.02179208
39	0x3dad3f38	0.08459324
40	0xbdb69c75	-0.089165606
41	0x3bc2b019	0.0059414026
42	0x3d6704d4	0.05640109
43	0xbdc6c916	-0.09706323
44	0x3cc4a04a	0.024002213
45	0x3d63b5b6	0.055593215
46	0x3dadbb85	0.08483032
47	0xbddd3d7e	-0.10802744
48	0xbc7457f6	-0.01491355
49	0xbd207334	-0.039172366
50	0xbdf91f04	-0.12164119
51	0xbd64bc15	-0.05584343
52	0x3d3555f0	0.04427141
53	0xbda50f8c	-0.08059606
54	0x3d07c159	0.033143375
55	0xbde4f298	-0.111790836
56	0xbdd6b9ba	-0.10484643
57	0xbdf8f603	-0.12156298
58	0x3d51882b	0.05115525
59	0x3dda5288	0.10660273
60	0x3e28445c	0.16432327
61	0xbdae78db	-0.08519145
62	0x3c48e316	0.012261173
63	0xbd971871	-0.07377709
64	0x3da8fc11	0.08251203
65	0x3d443b0b	0.04790787
66	0x3d78cc45	0.06074168
67	0x3db36c47	0.08760887
68	0x3e003d69	0.12523426
69	0x3da428bf	0.08015584
70	0xbd42e6bf	-0.047583338
71	0xbd24f532	-0.0402729
72	0xbd81ebc4	-0.06343797
73	0x3c7e553e	0.015523253
74	0x3dd9eeda	0.106412604
75	0xbe02f8b3	-0.12790184
76	0x3d89afaf	0.06722962
77	0xbd1d0fe0	-0.038345218
78	0x3d8c6672	0.068554774
79	0xbd00612a	-0.031342663
80	0x3d5e4001	0.054260258
81	0xbce60b67	-0.028081609
82	0x3e0e6b44	0.13908106
83	0xbc6ee3ea	-0.014580706
84	0x3d622dc4	0.055219427
85	0xbe06e297	-0.13172375
86	0xbe01fe0b	-0.12694566
87	0xbdf2071c	-0.11817762
88	0x3e2297c5	0.15878208
89	0x3db0e3cd	0.086371996
90	0xbca610b8	-0.020271644
91	0xbe1964ac	-0.1497981
92	0x3e0d0918	0.13773
93	0x3c9bef78	0.019035086
94	0x3db8108a	0.089875296
95	0xbd2b92de	-0.04188811
96	0x3c056fb1	0.008144305
97	0x3cecf96a	0.028927524
98	0xbde6d206	-0.112705275
99	0xbdfe9535	-0.12430803
100	0xbd584bde	-0.052806728
101	0xbda0ea32	-0.07857169
102	0xbd8f2f92	-0.06991495
103	0xbdf4ef4a	-0.11959703
104	0x3c7fa463	0.015603158
105	0xbde6e125	-0.11273412
106	0x3cee092c	0.029057108
107	0xbd1c9b2f	-0.038233932
108	0xbd9ad833	-0.07560768
109	0xbc1d3f37	-0.009597591
110	0x3d9c5dee	0.07635103
111	0x3d141ea8	0.03616205
112	0xbc5f5022	-0.013629945
113	0xbc6fd3ce	-0.0146379005
114	0x3e1b2a48	0.15152848
115	0x3e1c1608	0.15242779
116	0x3dc44aa1	0.09584547
117	0xbdcf4922	-0.10121371
118	0x3c5191e3	0.01279113
119	0x3d172aba	0.03690598
120	0x3dd3b324	0.10336903
121	0xbca4ccb8	-0.020117149
122	0xbd02d91f	-0.031945344
123	0xbd844632	-0.06458701
124	0x3e1d34d8	0.1535219
125	0x3da22be8	0.07918531
126	0xbd47ddac	-0.048795387
127	0xbcb3697c	-0.021900885
128	0xbd9b8a56	-0.07594745
129	0x3d485cdd	0.048916686
130	0xbd3d36de	-0.046194904
131	0x3d532ac2	0.05155445
132	0x3c8382ce	0.016053583
133	0x3cccfb2b	0.02502211
134	0x3de5847c	0.1120691
135	0xbd37480f	-0.044746455
136	0x3b391316	0.0028240136
137	0x3d908b02	0.07057764
138	0xbdb7673f	-0.089552395
139	0x3d840714	0.064466625
140	0x3d3c8bb9	0.046031687
141	0xbdd42173	-0.103579424
142	0x3ce3610e	0.02775624
143	0xbcc6731c	-0.02422481
144	0xbd5c19d0	-0.053735554
145	0x3e127468	0.14302218
146	0x3d20ab4b	0.039225858
147	0xbcd4c6c4	-0.025973685
148	0x3d1acece	0.03779488
149	0x3dc2a4d3	0.09504094
150	0xbde7e941	-0.113237865
151	0x3e2ff538	0.17183387
152	0xbd88284e	-0.066483125
153	0xbdc3dc3b	-0.0956349
154	0xbd0bafb9	-0.03410313
155	0xbda4c7e0	-0.08045936
156	0xbd9433d6	-0.072364494
157	0xbd98962c	-0.07450518
158	0x3bc65c05	0.00605345
159	0x3e0d607e	0.1380634
160	0x3dad682d	0.084671356
161	0xbe0d970b	-0.1382715
162	0x3d51e318	0.051241964
163	0x3dd4067f	0.103528015
164	0x3db2ea9a	0.08736153
165	0xbd7672a9	-0.060167942
166	0x3e32d00c	0.17462176
167	0x3de93aa4	0.11388138
168	0x3d1dce9e	0.038527124
169	0x3d41b9a0	0.047296166
170	0xbd1c4a2c	-0.038156673
171	0x3df3327a	0.11874862
172	0x3d882cb0	0.066491485
173	0x3dd6abc1	0.10481978
174	0x3d3b4d21	0.045727853
175	0x3cbcff28	0.023070887
176	0x3d1692af	0.036760982
177	0x3c042874	0.008066285
178	0x3cf66835	0.030078987
179	0x3b5fea11	0.0034166614
180	0x3dd01d9f	0.101619
181	0xbce4d182	-0.027931932
182	0x3c9af528	0.018915728
183	0xbdc934e9	-0.09824545
184	0x3e276b15	0.16349442
185	0xbd47d110	-0.048783362
186	0x3d4c4baf	0.049876865
187	0x3d014a3d	0.03156494
188	0x3d92cc92	0.07167925
189	0x3e1120c6	0.14172658
190	0xbd67c408	-0.056583434
191	0x3c875cec	0.0165238
192	0xbdccefe3	-0.10006692
193	0xbdf59701	-0.11991692
194	0x3db8fa1c	0.090320796
195	0xbe2221c4	-0.15833193
196	0x3cff6e1e	0.031180438
197	0xbceffcec	-0.029295407
198	0xbcdb0ff7	-0.026741011
199	0xbd3af7c0	-0.04564643
200	0x3da15a2f	0.07878529
201	0x3a72af70	0.00092577096
202	0x3d75abac	0.059978172
203	0x3b1f013f	0.0024262217
204	0x3d61fc6c	0.05517237
205	0xbca40739	-0.020022975
206	0xbc344908	-0.01100374
207	0x3ccd8630	0.0250884
208	0xbb7351fc	-0.0037127724
209	0xbd955ff3	-0.072936915
210	0xbca6ef62	-0.020377818
211	0x3b27cfc1	0.0025606009
212	0x3dcd02d5	0.10010306
213	0x3bf62230	0.0075113997
214	0xbc8c2889	-0.017109172
215	0xbd86350f	-0.06553089
216	0xbd2f793f	-0.04284024
217	0xbce93164	-0.028465934
218	0x3dc8a6f8	0.09797472
219	0xbcbe9d62	-0.023268405
220	0xb9fa7f6f	-0.0004777866
221	0xbdfa3b90	-0.12218392
222	0x3dccedf5	0.10006324
223	0x3e05df2b	0.13073413
224	0x3db78089	0.08960063
225	0xbdd6b4dc	-0.10483715
226	0x3d748af2	0.05970282
227	0x3d59fdc1	0.053220514
228	0x3c66be4c	0.014083456
229	0x3bf5d10b	0.0075017265
230	0x3c17741e	0.009243993
231	0x3d1ba6c9	0.038000856
232	0xbd3f6ea8	-0.04673639
233	0xbd0854d5	-0.033284027
234	0x3e0ebf34	0.13940126
235	0xbb9d2d0a	-0.004796629
236	0x3d6350b5	0.05549689
237	0x3e10273d	0.14077468
238	0xbcc6430e	-0.024201896
239	0xbdd26c7f	-0.102746
240	0x3db14cb6	0.086572096
241	0x3dfbf596	0.12302701
242	0xbdeb660f	-0.114940755
243	0x3c550058	0.01300057
244	0xbc2889ff	-0.010286807
245	0x3c71b9c0	0.014753759
246	0xbcb5239a	-0.022111703
247	0x3d3b2683	0.045691025
248	0xbdd6a210	-0.1048013
249	0x3e03a80f	0.12857078
250	0xbb075574	-0.00206503
251	0xbd407f76	-0.046996556
252	0x3ca166fa	0.019702423
253	0x3c1652c6	0.009175008
254	0xbd2e92c9	-0.042620454
255	0xbe3a8ed9	-0.18218555

gru.weight_hh_l0 f4 [300, 100]
0	0xbe0c7001	-0.13714601
1	0x3cad8fa6	0.021186661
2	0xbdcd4fa9	-0.100249596
3	0x3da54829	0.08070404
4	0xbd8e2e9f	-0.06942486
5	0x3c5b3d85	0.013381367
6	0xbb99fc32	-0.0046992535
7	0x3d15a3d7	0.036533203
8	0x3dde87af	0.10865723
9	0xbd0dc8a3	-0.03461517
10	0xbc488376	-0.012238374
11	0x3e0e511c	0.13898128
12	0xbdc2aea1	-0.09505964
13	0xbdad04ea	-0.08448203
14	0xbce93e2e	-0.028472032
15	0xbe209389	-0.1568128
16	0x3dc8fb07	0.09813505
17	0x3daa9ca6	0.083306596
18	0xbdfe52f2	-0.12418164
19	0xbd44e414	-0.048069075
20	0xbe255ee3	-0.16149478
21	0x3dffac2e	0.124840125
22	0x3ac54a56	0.0015052061
23	0xbd9fbb8f	-0.07799446
24	0x3d2cbd6f	0.042172845
25	0x3e2dbccf	0.16966556
26	0x3d1456cc	0.03621559
27	0x3dd945dc	0.10609028
28	0xbdde5f8d	-0.108580686
29	0x3cbb1e34	0.02284155
30	0x3d40e7f1	0.047096197
31	0x3c9bd65d	0.019023115
32	0xbe05cc9c	-0.13066334
33	0xbe197ec8	-0.1498977
34	0xbd024ff8	-0.031814545
35	0x3e16a31b	0.14710657
36	0xbdc7722e	-0.09738575
37	0x3dc66384	0.0968695
38	0xbcbb920c	-0.022896789
39	0xbc248157	-0.010040603
40	0xbda45535	-0.080240645
41	0xbe01700b	-0.12640397
42	0xbc62fd10	-0.01385428
43	0xbcc84ebb	-0.024451604
44	0xbce5a74b	-0.028033873
45	0xbccba096	-0.024856847
46	0xbda9077a	-0.08253379
47	0xbd047854	-0.032341316
48	0xbdb3ce99	-0.0877964
49	0x3d09cba9	0.03364149
50	0x3d73f3ed	0.059558798
51	0x3c804fad	0.015662992
52	0xbd8487c4	-0.06471208
53	0x3c99904e	0.018745568
54	0xbd49d6c1	-0.04927707
55	0xbd90e4e5	-0.07074908
56	0x3d613ce1	0.0549897
57	0xbe10f25b	-0.14154951
58	0x3ca2f288	0.019891039
59	0x3d9cba0a	0.07652672
60	0x3b145bfe	0.002263784
61	0xbdb5b023	-0.08871486
62	0x3d2c4066	0.042053603
63	0x3dd304ef	0.103036754
64	0xbd9db4fb	-0.07700535
65	0xbe03dad4	-0.12876445
66	0xbd9283ab	-0.0715402
67	0x3d812d7e	0.06307505
68	0x3d619502	0.055073746
69	0xbdba5d41	-0.09099818
70	0xbded30ce	-0.115815744
71	0xbd5d9707	-0.05409911
72	0xbdc9d132	-0.09854354
73	0xbcf7eed4	-0.03026525
74	0xbda1e650	-0.07905257
75	0x3df214e5	0.118203916
76	0xbe367fde	-0.17822215
77	0x3d65b76f	0.05608314
78	0x3c4e477a	0.0125902835
79	0x3d6f35cd	0.058400918
80	0xbd162344	-0.036654726
81	0x3cc979c5	0.024594197
82	0xbdfa604a	-0.12225397
83	0xbdced9d5	-0.10100142
84	0x3d01f2f0	0.031725824
85	0x3d98e2ad	0.0746511
86	0xbd884ee4	-0.06655672
87	0x3d83d02f	0.06436192
88	0xbe1a3435	-0.15058978
89	0x3c69b7a4	0.014264975
90	0xbdc32bac	-0.09529814
91	0xbdbf8323	-0.09351184
92	0xbcc1debd	-0.02366578
93	0x3bb852f3	0.0056251227
94	0x3dba5252	0.090977326
95	0xbcd41412	-0.025888477
96	0xbdde1ff5	-0.10845939
97	0x3c844b3e	0.01614916
98	0xbda50c14	-0.08058944
99	0xbdfa7296	-0.12228887
100	0xbdc1777f	-0.0944662
101	0x3db78b5c	0.089621276
102	0x3d32f02a	0.04368607
103	0xbe0a532f	-0.13508295
104	0xbd97f026	-0.074188516
105	0xbe023dd1	-0.12718894
106	0xbe274fa1	-0.1633897
107	0x3e33eeb2	0.17571524
108	0xbc8f8b24	-0.017522402
109	0xbbb875cd	-0.0056292773
110	0x3c966a7c	0.018361323
111	0xbda7a6f5	-0.081861414
112	0x3c43b913	0.011945981
113	0xbc294012	-0.010330217
114	0x3d202b3d	0.039103735
115	0xbd8e3da6	-0.06945352
116	0xbe0afa74	-0.13572103
117	0x3c46b2f1	0.012127624
118	0x3db244c2	0.08704521
119	0x3cd7627b	0.026292076
120	0x3d4e549c	0.05037366
121	0xbdba7106	-0.09103589
122	0xbd706358	-0.05868849
123	0xbcd22b2f	-0.025655357
124	0x3d969873	0.07353296
125	0x3d754be8	0.059886843
126	0xbe150dfe	-0.14556119
127	0xbd36bb31	-0.044612113
128	0xbd9c1f42	-0.076231495
129	0x3da6c7b6	0.081435606
130	0x3c024619	0.007951283
131	0x3d9866e1	0.074414976
132	0x3d882719	0.06648082
133	0xbcce6896	-0.025196355
134	0xbd938090	-0.07202256
135	0x3dc8caaa	0.0980428
136	0x3df1ac62	0.118004575
137	0x3c1ada7b	0.009451504
138	0xbd6665dc	-0.056249484
139	0x3c04672c	0.008081239
140	0x3d3174bd	0.04332422
141	0x3d186cb9	0.03721306
142	0x3c15ac72	0.009135352
143	0x3c027980	0.007963538
144	0xbbd1ca05	-0.0064022564
145	0x3dca2503	0.09870341
146	0xbc8e95b5	-0.01740537
147	0xbdbb823d	-0.091557
148	0x3d40ba22	0.04705251
149	0xbd383ed6	-0.0449818
150	0x3d89e2e0	0.06732726
151	0x3d0a1e9b	0.033720594
152	0x3e0fc88c	0.14041346
153	0x3ddf5d57	0.10906475
154	0xbdf48d28	-0.11940986
155	0x3c06034e	0.008179499
156	0xbdb8e5f3	-0.09028234
157	0xbdb9be97	-0.09069555
158	0xbdd4f80a	-0.10398872
159	0xbd8ccbff	-0.06874847
160	0x3cc6ccbc	0.024267547
161	0xbdad81d7	-0.084720306
162	0xbe079a8a	-0.13242546
163	0x3d45a38b	0.04825167
164	0x3c1ddc3f	0.00963503
165	0x3d94f3ee	0.072730884
166	0xbcd49145	-0.025948176
167	0x3c7f0518	0.015565179
168	0x3d8dcd92	0.06923975
169	0x3dd62fc0	0.10458326
170	0x3da141b6	0.078738615
171	0x3d80f337	0.062963895
172	0x3cebf29f	0.028802214
173	0x3daf9178	0.08572668
174	0x3d899437	0.06717723
175	0x3e002b9f	0.1251664
176	0xbddfb6f0	-0.109235644
177	0x3df9de45	0.12200598
178	0xbdd7a1c4	-0.10528901
179	0x3d428063	0.04748572
180	0x3c606926	0.013696944
181	0x3c12dc9a	0.008963728
182	0x3d436401	0.047702793
183	0xbd5da908	-0.05411628
184	0xbc56c04e	-0.013107372
185	0x3d9f8534	0.07789078
186	0xbc3fca84	-0.011705998
187	0xbcdbcda6	-0.02683146
188	0x3d86e030	0.06585729
189	0xbc131a9b	-0.008978511
190	0xbd2db8da	-0.042412616
191	0xbd1d1464	-0.038349524
192	0xbdacb5f2	-0.08433141
193	0xbc848228	-0.016175345
194	0x3de97264	0.113987714
195	0xbd4dff7a	-0.05029247
196	0x3d86f1dc	0.065891
197	0x3db193d5	0.08670775
198	0x3ca9e420	0.020738661
199	0x3d76decd	0.060271073
200	0xbc2e03f5	-0.010621061
201	0xbd23476f	-0.039863046
202	0xbd1ca7c1	-0.03824592
203	0xbd9b9436	-0.07596628
204	0x3d498fe6	0.049209498
205	0x3c140aee	0.009035809
206	0x3d57ae37	0.05265638
207	0xbdd9300d	-0.10604868
208	0x3d57e477	0.052708115
209	0xbc2b287a	-0.010446662
210	0x3d42fada	0.047602512
211	0x3c8a7d6c	0.016905509
212	0x3d64eb7a	0.05588863
213	0x3dd9b89b	0.10630914
214	0xbdf9cd9c	-0.1219742
215	0xba09be90	-0.0005254531
216	0xbdee1504	-0.11625102
217	0x3c2271d6	0.009914836
218	0xbddc1480	-0.107460976
219	0xbd12e0e2	-0.035858996
220	0x3c91e8f3	0.017811274
221	0xbdd23382	-0.102637306
222	0x3d6df32f	0.058093246
223	0x3d6c21c7	0.0576494
224	0x3cc9937c	0.024606459
225	0x3c97de77	0.018538697
226	0xbdda6ac8	-0.10664898
227	0x3dc7e409	0.09760291
228	0xbb694800	-0.0035595894
229	0x3dd7853c	0.10523459
230	0x3d9fd9f8	0.07805246
231	0x3d56884a	0.05237607
232	0x3d8fc7e7	0.0702055
233	0xbd3d7809	-0.046257053
234	0xbdb8df17	-0.09026926
235	0xbd0a2381	-0.033725265
236	0x3daf34fa	0.08555026
237	0xbc9e6a75	-0.019337872
238	0xbd666049	-0.05624417
239	0xbd2b93df	-0.041889068
240	0xbd244ba0	-0.040111184
241	0xbd37c425	-0.044864792
242	0xbc631934	-0.013860989
243	0xbd5c4072	-0.053772397
244	0xbd5cc349	-0.053897176
245	0xbd041abe	-0.032252066
246	0xbdc8c462	-0.09803082
247	0xbd0c0e35	-0.034193236
248	0xbd88f66c	-0.06687626
249	0xbe08df02	-0.1336632
250	0xbbd93d95	-0.0066296556
251	0xbd5e68da	-0.054299213
252	0xbd9e2583	-0.077219985
253	0xbd6c85c5	-0.05774476
254	0xbc0aa748	-0.0084627345
255	0x3d931680	0.07182026

gru.bias_ih_l0 f4 [300]
0	0xbddf6d31	-0.109094985
1	0xbdcf4747	-0.10121017
2	0x3d2219bc	0.039575323
3	0xbca0e013	-0.019638097
4	0x3c3f15be	0.011662899
5	0xbdb74efe	-0.089506134
6	0xbd6491f0	-0.05580324
7	0x3d539c42	0.05166269
8	0xbd921eb4	-0.071347624
9	0x3dea3ed1	0.114377625
10	0x3daf480d	0.085586645
11	0x3dcd4295	0.10022465
12	0x3dc255a1	0.09488989
13	0xbdd25fe6	-0.102721974
14	0x3d059d1e	0.03262054
15	0x3dcbb2c5	0.09946207
16	0x3d891408	0.06693274
17	0xbca0b1d9	-0.019616054
18	0xbd7b0397	-0.06128272
19	0x3cf11277	0.02942775
20	0xbcca4e51	-0.024695547
21	0x3d47accc	0.048748776
22	0xbd2a8e27	-0.041639473
23	0xbd63cb91	-0.055614058
24	0x3bbae986	0.0057041077
25	0x3d871059	0.06594915
26	0x3c465d72	0.01210724
27	0x3be4110a	0.006960039
28	0x3d1371a7	0.03599706
29	0x3c931547	0.017954482
30	0x3d352c2e	0.044231586
31	0x3de40b40	0.11134958
32	0x3bdd92d2	0.006761887
33	0xbb7de3f2	-0.0038740602
34	0x3d6f78a4	0.05846466
35	0xbd893140	-0.06698847
36	0xbcaa9535	-0.0208231
37	0x3dcde082	0.10052587
38	0x3ccc39ff	0.024929998
39	0x3dace0a5	0.08441285
40	0xbd9c4ddb	-0.07632037
41	0x3c8ecd8b	0.017431995
42	0x3c41c9cc	0.011827897
43	0xbcf48f2d	-0.029853428
44	0x3d0b0eae	0.033949547
45	0xbce5217e	-0.027970072
46	0xbd3bc370	-0.04584068
47	0x3de1f9d1	0.11033977
48	0x3d02c027	0.031921532
49	0x3d46e476	0.04855772
50	0x3dce91b4	0.100863844
51	0x3d8ecfcd	0.069732286
52	0x3ae1ad56	0.0017217796
53	0xbcd451d1	-0.02591792
54	0x3d97d462	0.07413556
55	0xbdaffc75	-0.08593074
56	0x3b2a81f9	0.002601741
57	0x3d72f194	0.059312418
58	0x3b681c56	0.003541728
59	0x3e03e843	0.1288157
60	0x3de5f811	0.112289555
61	0x3ddab2ea	0.106786564
62	0x3db5fd15	0.08886162
63	0xbd77ce66	-0.06049957
64	0x3d47e2a3	0.048800122
65	0x3cad69ab	0.02116855
66	0x3bba7eb0	0.005691372
67	0xbdda0d01	-0.106470115
68	0x3d4477e4	0.0479659
69	0xbdfb27f6	-0.12263481
70	0x3d1fb496	0.03899058
71	0xbd86d9a6	-0.06584482
72	0x3d73b879	0.0595021
73	0x3e0f854a	0.1401569
74	0x3d2554ad	0.040363956
75	0x3d34dce5	0.044155974
76	0x3d0d36b6	0.034476005
77	0xbd7393d0	-0.059467137
78	0x3c3c3504	0.011487249
79	0xbda94240	-0.08264589
80	0x3d2fe4ac	0.042942688
81	0x3dcdf86e	0.1005715
82	0x3b3510ef	0.0027628501
83	0xbdc41b07	-0.095754676
84	0x3d3c3dcb	0.045957368
85	0x3c0862f2	0.008324372
86	0xbd9e5d34	-0.07732621
87	0x3dd586f5	0.10426132
88	0xbd1b6a11	-0.03794295
89	0x3ddcb5f8	0.10776895
90	0x3dbc45f8	0.09193033
91	0xbc64ae86	-0.013957625
92	0x3d92d12e	0.07168804
93	0xbd22be10	-0.03973204
94	0x3d8cae39	0.06869168
95	0xbd95fe73	-0.07323923
96	0x3ddb07c3	0.1069484
97	0x3d821144	0.063509494
98	0x3cfd5850	0.0309259
99	0xbcd849de	-0.02640241
100	0x3b96d44e	0.0046029454
101	0x3d971f47	0.073790126
102	0x3cefa0d6	0.029251497
103	0x3e0ba9eb	0.13639037
104	0x3d545102	0.051835068
105	0x3d542b54	0.051799133
106	0xbd6e5e74	-0.058195546
107	0xbd0556e1	-0.032553557
108	0xbddaa606	-0.10676198
109	0x3dc52331	0.09625853
110	0x3c72d7f2	0.014821993
111	0xbce95979	-0.028485047
112	0x3d81ed20	0.06344056
113	0x3d3f9236	0.046770297
114	0xbd30a84c	-0.04312925
115	0x3d3f520e	0.046709113
116	0xbde49c21	-0.11162592
117	0xbdd0850a	-0.10181625
118	0x3e1aec46	0.15129194
119	0x3dabe53e	0.08393334
120	0xbd1f6ec2	-0.038923986
121	0x3d7e9121	0.062150124
122	0xbdfd76ff	-0.12376212
123	0x3d2b2e14	0.04179199
124	0x3d331c22	0.043728
125	0x3dabc6e0	0.08387542
126	0x3d3940f0	0.045227945
127	0xbe03175a	-0.12801877
128	0xbe2b57c7	-0.16732703
129	0xbd744581	-0.059636597
130	0xbe0d30ad	-0.137881
131	0x3d9af886	0.07566933
132	0xbd4fe0c0	-0.050751448
133	0x3d207fee	0.039184503
134	0xbcaaf7be	-0.020870086
135	0xbccfb674	-0.025355555
136	0xbd8c27f0	-0.06843555
137	0x3e0653b9	0.13117875
138	0xbcd19031	-0.025581451
139	0x3d8f1bb2	0.06987704
140	0xbc70678b	-0.014673124
141	0x3dde59c7	0.108569674
142	0xbdbe99e8	-0.09306699
143	0xbac960a0	-0.001536388
144	0x3e0b211a	0.13586846
145	0x3d8b5b09	0.06804473
146	0xbd0eb668	-0.034841925
147	0xbdb8fdb6	-0.090327665
148	0x3d91f9e2	0.071277395
149	0x3c87296e	0.016499247
150	0xbd10abd8	-0.035320133
151	0x3e24399c	0.16037601
152	0xbe15f065	-0.14642484
153	0xbc0f780d	-0.00875665
154	0xbdc672a2	-0.09689833
155	0x3dbd068a	0.09229763
156	0xbdc30bb2	-0.09523715
157	0xbd54afdb	-0.05192552
158	0xbc107907	-0.008817918
159	0xbcdde30b	-0.027085802
160	0x3e21e2bf	0.15809153
161	0x3da77dec	0.081783146
162	0xbe34cede	-0.17657039
163	0xbdd472f8	-0.10373491
164	0x3d1ebb47	0.03875282
165	0x3d8b08d4	0.06788793
166	0xbc47f0e5	-0.01220343
167	0xbb084b1c	-0.0020796722
168	0xbd20ca2b	-0.039255302
169	0x3d13e3d5	0.03610595
170	0x3d4a13e9	0.049335394
171	0xbde8357e	-0.11338328
172	0x3dbcc6f6	0.09217636
173	0x3d90b3d7	0.07065552
174	0x3cef9cd7	0.029249592
175	0xbd096801	-0.03354645
176	0x3e18e9eb	0.14932983
177	0xba8c8acf	-0.001072252
178	0xbc8b4527	-0.017000748
179	0x3decea80	0.11568165
180	0xbdaa79a9	-0.08323986
181	0xbdc287a9	-0.09498531
182	0xbcd53844	-0.026027806
183	0xbdf3b9bd	-0.11900661
184	0x3d8be722	0.068311945
185	0x3c020f87	0.007938272
186	0xbd3f679c	-0.04672967
187	0x3b7bfbc6	0.003844963
188	0xbda77b9a	-0.08177872
189	0xbcb7dbdd	-0.022443706
190	0xbd4985df	-0.049199935
191	0x3d9f4c67	0.077782445
192	0x3de65334	0.112463385
193	0x3dacfadb	0.084462844
194	0xbc8a3e1c	-0.01687532
195	0xbd811e9b	-0.06304666
196	0x3d1250d7	0.035721626
197	0xbd7be3f0	-0.061496675
198	0xbd8048e0	-0.062639
199	0xbdc3d9d2	-0.0956303
200	0x3d9298bd	0.07158039
201	0x3e19bbcc	0.15013045
202	0x3d644d4c	0.05573778
203	0x3c92f279	0.017937886
204	0xbd7c12a8	-0.06154123
205	0xbb0ee7f4	-0.0021805735
206	0xbd0635b1	-0.032766048
207	0xbc376e43	-0.011195722
208	0xbc84050b	-0.016115686
209	0x3c2d6da2	0.0105852205
210	0x3d69868d	0.057013083
211	0xbe0a5ea6	-0.13512668
212	0x3d4e950f	0.050435122
213	0x3de0f508	0.10984236
214	0xbcd710ee	-0.02625319
215	0x3defce3b	0.11709257
216	0x3c4f45d9	0.01265093
217	0xbd66dc05	-0.05636217
218	0x3d9fb7bf	0.07798719
219	0x3e09301b	0.13397257
220	0x3de89556	0.113566086
221	0xbda36323	-0.07977893
222	0xbdbb2455	-0.09137789
223	0xbdc20d30	-0.094751716
224	0x3c954c58	0.01822488
225	0xbb76b417	-0.0037643963
226	0xbd6f2ae8	-0.058390528
227	0xbce47225	-0.02788646
228	0x3c85f272	0.016350958
229	0xbd6b64ca	-0.057469167
230	0xbdaa706f	-0.08322226
231	0x3d9a0ee5	0.07522372
232	0x3df97a2a	0.12181504
233	0x3db94845	0.090469874
234	0x3e003dda	0.12523594
235	0xbe118ebd	-0.14214607
236	0x3c036891	0.008020536
237	0xbcbf7b81	-0.023374321
238	0x3e1d7990	0.15378404
239	0xbc1e5a02	-0.009665014
240	0x3da5f60e	0.08103572
241	0x3e07fb7d	0.13279529
242	0xbd72ad6e	-0.059247427
243	0x3df02c57	0.11727207
244	0x3dbe91ce	0.09305154
245	0xbbe0a54a	-0.0068556415
246	0x3cae9519	0.02131133
247	0x3d953141	0.07284785
248	0xbcde8561	-0.02716321
249	0xbd768b63	-0.060191523
250	0xbde8299e	-0.11336063
251	0x3e250d89	0.16118445
252	0x3acc4718	0.0015585152
253	0x3c59906d	0.013279063
254	0x3dbacc74	0.091210276
255	0x3d62aab6	0.055338584

gru.bias_hh_l0 f4 [300]
0	0xbe202477	-0.1563891
1	0xbcb21d2c	-0.021742426
2	0x3d0d9bb0	0.034572303
3	0x3dbb9cc5	0.09160761
4	0x3e121b0c	0.1426813
5	0x3d7defda	0.06199632
6	0x3d6c4618	0.057684034
7	0x3cdb83e7	0.026796294
8	0x3d42fe9a	0.04760609
9	0x3cb7238b	0.022355815
10	0xbcade40a	-0.021226902
11	0xbd5167bf	-0.05112433
12	0xbcfb6a6c	-0.030690394
13	0xbe0058e4	-0.12533909
14	0x3b8dc6e6	0.004326689
15	0x3db0bfff	0.0863037
16	0x3e08ca16	0.1335834
17	0x3dada0ca	0.08477934
18	0xbd577d77	-0.052609887
19	0x3d887904	0.06663707
20	0x3d4bfd53	0.049802136
21	0x3e0d5673	0.13802509
22	0xbbbf1e51	-0.0058324714
23	0x3c2c77fe	0.010526655
24	0xbe1d26b5	-0.15346797
25	0xba7010bc	-0.0009157767
26	0xbd912370	-0.07086837
27	0x3e0c7107	0.13714992
28	0x3d296d17	0.0413638
29	0xbd6b10a8	-0.05738893
30	0xbdd2d05b	-0.10293647
31	0x3c61fd46	0.013793295
32	0x3cde48bc	0.027134292
33	0x3db17d4c	0.086664766
34	0x3dacf61b	0.084453784
35	0x3d0959f5	0.033533055
36	0xbc531e94	-0.012885708
37	0x3c9eb191	0.01937178
38	0x3e0d9606	0.1382676
39	0x3d85c74a	0.06532152
40	0x3ca34564	0.019930549
41	0x3cde3c14	0.027128257
42	0x3db2954f	0.087198846
43	0x3cb3eb24	0.02196271
44	0xbc5dfaea	-0.013548592
45	0x3d76dba7	0.06026807
46	0x3cba70d7	0.022758884
47	0x3cd2edb1	0.025748106
48	0xbd1bdf54	-0.03805478
49	0x3db57f73	0.088622
50	0x3d9f392d	0.07774577
51	0xbc1a8ebd	-0.0094334455
52	0x3de7e342	0.11322643
53	0x3e0b0200	0.13574982
54	0xbd83aff9	-0.064300485
55	0xbd0892c7	-0.033343103
56	0xbc8c049c	-0.017092042
57	0x3d70f40e	0.0588265
58	0x3dde2e57	0.108486824
59	0x3cb16399	0.021653937
60	0x3ce18d0b	0.027533075
61	0x3d73a0cc	0.05947952
62	0xbd6edcfc	-0.058316216
63	0xbdacfc63	-0.084465764
64	0xbcf051ea	-0.029335935
65	0x3a7b02f8	0.00095753325
66	0x3dbe0b10	0.09279454
67	0xbd4de98f	-0.050271567
68	0x3d9d5cbd	0.07683704
69	0xbe0685e7	-0.13137017
70	0xbd269b62	-0.04067553
71	0xbb36a2be	-0.0027867998
72	0x3df3f8f0	0.119127154
73	0x3de64e15	0.11245362
74	0x3dc893a8	0.09793788
75	0x3c96296a	0.018330295
76	0x3e149d23	0.14513068
77	0x3d0d8aea	0.034556307
78	0xbc8a5f0b	-0.016891023
79	0x3ccc03cb	0.024904152
80	0xbd3f9c06	-0.046779655
81	0x3cb0b053	0.021568453
82	0xbdcd0c79	-0.100121446
83	0x3cb5b01d	0.022178704
84	0x3dfa96e2	0.1223581
85	0xbd692072	-0.056915708
86	0xbda85f77	-0.082213335
87	0x3d33fd15	0.04394253
88	0x3b6ca49f	0.0036108864
89	0x3dfb26f2	0.122632876
90	0x3bb490d0	0.005510427
91	0xbc075a44	-0.008261267
92	0x3dcce183	0.100039504
93	0xbce75ac3	-0.02824152
94	0x3d966529	0.073435135
95	0xbe0de191	-0.13855578
96	0x3caa02a3	0.02075321
97	0x3c0fecfa	0.008784527
98	0xbdc73d11	-0.09728444
99	0x3c31ab32	0.010844039
100	0xbd319166	-0.043351553
101	0x3b4d2873	0.0031304627
102	0x3dc430a8	0.09579593
103	0x3bab0707	0.0052193436
104	0xbd937120	-0.07199311
105	0xbd915de1	-0.07097984
106	0xbe122369	-0.1427132
107	0x3d2c17cb	0.04201488
108	0xbe05ac25	-0.13053949
109	0x3c78ac82	0.015177848
110	0xbe201d23	-0.15636115
111	0xbcb6237c	-0.022233717
112	0x3e072d8f	0.13200973
113	0xbc2cd216	-0.010548135
114	0x3bc5829b	0.0060275323
115	0x3d971ee1	0.073789366
116	0xbdd0db2b	-0.10198053
117	0xbd396483	-0.04526187
118	0xbb97f70b	-0.004637604
119	0x3e0c276e	0.13686916
120	0xbd4b4d32	-0.049634166
121	0x3d984c0f	0.07436382
122	0xbdaa1f60	-0.083067656
123	0x3c8e3afe	0.017362114
124	0xbd55e199	-0.0522171
125	0xbb6ec6bf	-0.003643438
126	0x39ccf7ca	0.0003909453
127	0xbc5cbca8	-0.0134727135
128	0xbdbaa7a2	-0.09114005
129	0xbdb3a4e7	-0.08771687
130	0xbda0ca1b	-0.078510486
131	0x3df6a1d1	0.12042583
132	0x3cfd1543	0.030893927
133	0xbca897eb	-0.020580253
134	0x3d84eb4b	0.06490191
135	0xbcb7a85a	-0.022419143
136	0xbd9d8b42	-0.07692577
137	0x3dc1875c	0.09449646
138	0xbc68f3b1	-0.014218257
139	0x3d27d9b6	0.04097911
140	0x3b06936d	0.002053465
141	0x3c490354	0.01226886
142	0xbd1c0809	-0.0380936
143	0xbd0644bd	-0.032780398
144	0xbc969734	-0.018382646
145	0xbc457265	-0.0120512
146	0x3dc056d5	0.09391562
147	0xbe29f289	-0.16596426
148	0xbd8dd606	-0.06925587
149	0x3d2d7244	0.0423453
150	0x3bc6a266	0.00606184
151	0x3e2d1668	0.16903079
152	0xbe3a11e1	-0.18170883
153	0xbb1442f4	-0.0022622915
154	0xbd97ec32	-0.074180976
155	0x3d92a5be	0.07160519
156	0xbe27246e	-0.1632249
157	0x3db73b70	0.08946884
158	0xbbe6374e	-0.007025636
159	0x3baf0b9c	0.00534196
160	0x3bdc6afb	0.0067266203
161	0xbd9cce88	-0.0765658
162	0xbd43391b	-0.047661882
163	0xbe1a65e0	-0.15077925
164	0x3e18a554	0.14906818
165	0x3ba5cb06	0.0050596027
166	0x3dfc5b3d	0.1232209
167	0xbdea5234	-0.1144146
168	0xbcf48015	-0.02984623
169	0xbd97cb10	-0.07411778
170	0xbd46e554	-0.048558548
171	0xbd689e70	-0.056791723
172	0xbd9fe6c0	-0.07807684
173	0xbd3f1deb	-0.04665939
174	0xbd657fbc	-0.05603002
175	0xbd65beac	-0.056090042
176	0xbc524244	-0.012833182
177	0xbcef8cbe	-0.029241916
178	0xbd787bf6	-0.060665093
179	0x3d4eba15	0.05047043
180	0xbdcefc09	-0.10106666
181	0x3cf84ac4	0.030309089
182	0x3c44033e	0.011963664
183	0xbd523754	-0.051322296
184	0x3e0da434	0.1383217
185	0x3d96f2a4	0.07370499
186	0xbdb119a4	-0.08647469
187	0xbe028efd	-0.12749858
188	0x3cd864c8	0.026415244
189	0x3d8a8ed4	0.067655236
190	0xbe20821f	-0.15674637
191	0xbce4c600	-0.027926445
192	0x3dacd468	0.08438951
193	0x3dc39431	0.0954975
194	0xbccd2bfc	-0.025045387
195	0xbc312b3e	-0.010813532
196	0x3da32ce1	0.07967544
197	0xbe26eaf7	-0.1630057
198	0xbc2491d0	-0.01004453
199	0x3d866687	0.06562524
200	0x3dd2d3e5	0.10294322
201	0x3d0e2d58	0.034711212
202	0x3d9f5f7c	0.07781884
203	0x3c1e82de	0.009674756
204	0xbe0765c6	-0.13222417
205	0x3d425195	0.047441084
206	0x3d83ef19	0.06442089
207	0x3cbe33d9	0.023218082
208	0x3bc12940	0.00589481
209	0xbdcaec22	-0.0990832
210	0x3d5e0d1d	0.054211725
211	0xbdbd7365	-0.092505254
212	0x3df1bea7	0.11803942
213	0xbd067138	-0.032822818
214	0x3cca6281	0.024705173
215	0x3d430a61	0.04761732
216	0xbdf562ab	-0.1198171
217	0xbabe5098	-0.0014519868
218	0x3e10d9c8	0.14145577
219	0x3ded0b70	0.11574447
220	0xbcb9d2a7	-0.022683455
221	0xbbc2fe9a	-0.005950761
222	0xbcd71c02	-0.026258472
223	0x3cb03f41	0.021514537
224	0xbd00d0d7	-0.031449165
225	0xbe165afc	-0.14683145
226	0x3d86ddee	0.065852985
227	0xbe09d0a8	-0.13458502
228	0x3d8c7a1c	0.06859228
229	0x3da17977	0.07884496
230	0xbd162b7d	-0.036662567
231	0xbd15b675	-0.036550958
232	0xbd443ac9	-0.047907624
233	0x3a98a2c6	0.001164519
234	0x3d689d1c	0.056790456
235	0xbdf2f3ca	-0.11862905
236	0xbd17e49e	-0.03708326
237	0xbe12e07d	-0.14343448
238	0x3d868605	0.06568531
239	0x3d0d72cf	0.034533318
240	0xbd2b13ba	-0.04176686
241	0x3e1a3300	0.15058517
242	0xbd7349e3	-0.059396636
243	0xbd91cb61	-0.071188696
244	0x3dc6db76	0.097098276
245	0x3db261db	0.08710071
246	0xbd434350	-0.047671616
247	0xbd39d41f	-0.04536831
248	0x3db7081f	0.08937096
249	0xbda0a957	-0.07844799
250	0xbdad716d	-0.084689
251	0x3b92f0fa	0.004484293
252	0x3dc71bcb	0.09722098
253	0x3d334d06	0.043774627
254	0xbd811a1f	-0.0630381
255	0xbbcb25e8	-0.006199587

decoder.weight f4 [195, 100]
0	0x3d3a7cc7	0.045529153
1	0xbdd0b1af	-0.101901405
2	0xbe0d8283	-0.13819318
3	0xbc32a4e0	-0.010903567
4	0x3e404ed5	0.18780072
5	0x3bb92a34	0.005650783
6	0x3d277d6e	0.040891103
7	0x3d629412	0.055316992
8	0x3d273d70	0.040830076
9	0x3d4c53bc	0.049884543
10	0x3d3732da	0.04472623
11	0x3e021f41	0.12707235
12	0xbcfb0afb	-0.030644884
13	0xbe1d9381	-0.153883
14	0x3dc2d959	0.09514112
15	0xbcd781ad	-0.026306951
16	0xbcf61fa1	-0.030044379
17	0x3d13235e	0.0359224
18	0x3cebd6be	0.02878892
19	0xbe13f9f1	-0.14450814
20	0x3d04f044	0.032455698
21	0xbc47a319	-0.012184882
22	0x3ceee606	0.029162418
23	0x3dfc4e90	0.12319672
24	0xbcdaa0a7	-0.026687933
25	0x3d3f6bfe	0.04673385
26	0xbcaa9e2d	-0.020827377
27	0x3c9195fa	0.01777171
28	0xbdbd2f7e	-0.09237574
29	0xbc947e6b	-0.018126687
30	0x3d483bb0	0.048885047
31	0xbdd77ace	-0.1052147
32	0xbdff7455	-0.124733604
33	0xbc54ba49	-0.012983867
34	0xbe081df9	-0.13292684
35	0x3e2761a4	0.1634584
36	0xbc6d9d02	-0.014502766
37	0x3d14ce22	0.036329396
38	0xbe1f51b0	-0.15558505
39	0xbd6e749d	-0.05821668
40	0xbc96166f	-0.018321244
41	0xbe107ddb	-0.1411051
42	0x3d7dfdd6	0.062009655
43	0xb90562e0	-0.00012720702
44	0xbdea1330	-0.11429441
45	0x3d32c296	0.043642603
46	0xbd1ba945	-0.038003225
47	0x3c8e3c09	0.017362611
48	0xbe3ba745	-0.18325527
49	0xbd2cc6b7	-0.042181697
50	0x3de07c70	0.109612346
51	0xbdce4419	-0.10071582
52	0xbdfef034	-0.12448159
53	0x3d1f3bb3	0.038875293
54	0xbc5e6d1c	-0.013575818
55	0xbe1127cb	-0.14175336
56	0x3e1a84b6	0.15089688
57	0xbe17cbe0	-0.14823866
58	0xbe092500	-0.1339302
59	0x3cf9e4a7	0.030504538
60	0x3e0b0f81	0.13580133
61	0xbddd6706	-0.10810666
62	0xbd3468cd	-0.04404526
63	0x3dde377a	0.10850425
64	0x3c9ed937	0.019390685
65	0xbe28c0b0	-0.16479754
66	0x3ca6887d	0.020328755
67	0xbc9a5963	-0.018841451
68	0x3ddf9076	0.109162256
69	0xbe12c93d	-0.14334579
70	0xbdcc7076	-0.09982388
71	0xbe18128e	-0.14850828
72	0x3be87939	0.007094529
73	0xbe096dbf	-0.13420771
74	0xbdd9e494	-0.10639301
75	0x3e08f935	0.13376315
76	0x3a8a4eb2	0.0010552017
77	0x3ce05775	0.027385453
78	0x3d0cd6ed	0.034384657
79	0xbd07749c	-0.03307019
80	0x3d18db45	0.037318487
81	0x3d0b5794	0.034019068
82	0xbbff030e	-0.0077823466
83	0xbdb311be	-0.087436184
84	0x3d23e76e	0.04001563
85	0x3e15ca50	0.14627957
86	0xbe2bc466	-0.16774139
87	0x3cccf9e8	0.025021508
88	0xbe28ebf3	-0.16496257
89	0xbdd6f303	-0.104955696
90	0xbd2d33b7	-0.042285647
91	0xbd28be49	-0.041197095
92	0x3da63e77	0.08117383
93	0x3da23dab	0.079219185
94	0xbba7f26f	-0.005125336
95	0x3d6f3b79	0.058406327
96	0xbd063c0d	-0.032772113
97	0x3d582b68	0.05277577
98	0xbdbca7ea	-0.092117146
99	0x3c491dff	0.012275218
100	0x3d0da150	0.034577668
101	0xbdb864a8	-0.09003574
102	0xbdefce42	-0.117092624
103	0xbd274018	-0.04083261
104	0xbd6b1770	-0.0573954
105	0xbc584765	-0.0132006155
106	0x3bddff13	0.006774792
107	0x3dcc43c1	0.099738605
108	0x3d173780	0.036918163
109	0x3e2552be	0.16144845
110	0xbd08b2cd	-0.033373643
111	0x3e1957da	0.14974919
112	0x3c9f1dab	0.019423326
113	0xbe216060	-0.1575942
114	0xbc552c4c	-0.0130110495
115	0xbde0347a	-0.10947509
116	0x3c4e416d	0.012588841
117	0x3de1ffe5	0.11035136
118	0xbd5bcf41	-0.05366445
119	0xbe0c58cb	-0.13705747
120	0xbcedef3f	-0.029044745
121	0x3e1b6cae	0.15178177
122	0xbc6bc8cf	-0.014391138
123	0x3d61ff28	0.055174977
124	0x3d7695d5	0.060201485
125	0xbc9294af	-0.017893163
126	0x3cd94826	0.02652366
127	0x3e197e8b	0.14989679
128	0xbdc29785	-0.09501556
129	0xbc80e5f4	-0.01573465
130	0x3cfc2eb4	0.030783989
131	0xbd959d7b	-0.07305428
132	0xbd14e162	-0.036347754
133	0xbaa123b7	-0.0012293969
134	0xbcb1d454	-0.021707691
135	0x3d58aec6	0.052901052
136	0xbd00108a	-0.031265773
137	0x3e01a040	0.12658787
138	0xbdd924a0	-0.10602689
139	0xbc960168	-0.018311217
140	0xbcf41280	-0.029793978
141	0xbe14741b	-0.14497416
142	0xbd24ea11	-0.040262286
143	0xbdeb8610	-0.1150018
144	0xbe1a4e70	-0.15068984
145	0x3b87da54	0.0041459
146	0x3d379434	0.044819072
147	0x3d81335c	0.06308624
148	0xbd1a0392	-0.03760106
149	0xbcebcd1f	-0.028784333
150	0x3e0527f5	0.13003524
151	0xbe0c7aed	-0.13718767
152	0x3d8bf46b	0.068337284
153	0x3c231fb3	0.009956288
154	0xbc152be5	-0.009104704
155	0x3c6a4265	0.014298056
156	0x3defe960	0.117144346
157	0xbcb4862e	-0.022036638
158	0xbd04b150	-0.03239566
159	0xbd758477	-0.05994078
160	0x3d582d06	0.052777313
161	0xbdb5cfed	-0.08877549
162	0x3dbebd55	0.09313456
163	0x3ab69560	0.0013930015
164	0xbd2f14b0	-0.04274434
165	0xbdcf0a90	-0.101094365
166	0xbdc711f6	-0.09720223
167	0x3da860a5	0.082215585
168	0x3dfd5c65	0.123711385
169	0xbdbe4db5	-0.09292165
170	0xbe0e677b	-0.13906662
171	0xbdf6a653	-0.120434426
172	0x3ceddf80	0.029037237
173	0xbe071ea6	-0.13195285
174	0xbdb0c388	-0.086310446
175	0x3e22364a	0.15841022
176	0xbd943465	-0.07236556
177	0xbd87608a	-0.0661021
178	0x3d6e7f20	0.058226705
179	0xbccdaf8a	-0.025108118
180	0xbd8786ff	-0.06617545
181	0x3cb7ad47	0.022421492
182	0xbcb9748c	-0.022638582
183	0xbd880b32	-0.0664276
184	0x3dfc3156	0.123140976
185	0x3e1f37eb	0.15548675
186	0xbe105f01	-0.14098741
187	0x3cd5e167	0.026108457
188	0x3b30eaf1	0.0026995505
189	0xbe30e353	-0.17274217
190	0x3b2b9f79	0.0026187582
191	0xbe10f815	-0.14157136
192	0xbd4dc3fa	-0.050235726
193	0xbcc79f4e	-0.024367955
194	0x3d7af476	0.061268292
195	0x3ce797c3	0.028270608
196	0xbdfd0e74	-0.12356272
197	0xbd5ab6e8	-0.05339709
198	0x3b907d90	0.0044094995
199	0xbd67f868	-0.056633383
200	0xbd4c224b	-0.04983739
201	0xbe1592cb	-0.14606778
202	0xbd6b7dd6	-0.057493053
203	0xbd475a58	-0.048670143
204	0xbd8bcd54	-0.068262726
205	0x3d9ebb7c	0.077506036
206	0x3db8f5a7	0.090312295
207	0x3c3f1d2b	0.011664669
208	0x3e0904a6	0.1338068
209	0x3e2b0892	0.16702488
210	0x3cbeec93	0.023306167
211	0x3d689cac	0.05679004
212	0xbe083878	-0.13302791
213	0xbe045500	-0.1292305
214	0x3de9854f	0.1140238
215	0xbdd0ef24	-0.102018625
216	0xbd2d8c3a	-0.04237006
217	0x3db952c0	0.090489864
218	0xbdd71ccf	-0.10503542
219	0xbd131203	-0.03590585
220	0xbddd1a15	-0.107959904
221	0x3cbbf456	0.022943657
222	0x3d5711b8	0.052507132
223	0x3df939f5	0.121692576
224	0x3dc15072	0.09439172
225	0x3d6293aa	0.055316605
226	0x3c1d6c39	0.009608322
227	0x3ca0f8d6	0.019649904
228	0xbd6eb202	-0.05827523
229	0x3c95b12f	0.018272964
230	0x3d93c221	0.072147615
231	0xbe339319	-0.17536582
232	0xbd233225	-0.039842743
233	0xbd231e1d	-0.03982364
234	0x3c468e6f	0.01211892
235	0x3b2a95c6	0.0026029213
236	0xbda7cc35	-0.08193246
237	0x3cb879be	0.022518989
238	0xbcfcc9dd	-0.030857975
239	0xbd8ae58e	-0.06782065
240	0xbe18f1b7	-0.14935957
241	0xbdc61786	-0.096724555
242	0x3dc4b475	0.09604732
243	0xbdb54766	-0.08851509
244	0xbe0b52f9	-0.1360587
245	0xbdf63a72	-0.12022866
246	0xbd86584f	-0.06559812
247	0x3d020540	0.031743288
248	0xbc2b3853	-0.01045044
249	0x3d2c05b5	0.04199763
250	0x3ddf41e7	0.10901242
251	0xbd024d65	-0.03181209
252	0xbdf8288e	-0.1211711
253	0xbdf7e915	-0.12105004
254	0x3db33d53	0.08751931
255	0x3c106496	0.008813044

decoder.bias f4 [195]
0	0xbdf36944	-0.11885312
1	0xbcfe8cb0	-0.031072944
2	0xbafb0884	-0.0019152318
3	0x3b9b76aa	0.0047443705
4	0x3c63e91e	0.01391056
5	0xbdf048d5	-0.117326416
6	0xbd7de182	-0.06198264
7	0xbe01a13e	-0.12659165
8	0xbd605b77	-0.054774728
9	0x3aa6bf5f	0.0012721828
10	0xbd349d47	-0.044095304
11	0xbdfc10a9	-0.12307865
12	0xbd099e28	-0.033598095
13	0xbe09955c	-0.13435882
14	0xbd10b787	-0.035331275
15	0xbdcadd51	-0.09905494
16	0xbe166e2d	-0.14690466
17	0xbab79094	-0.001400488
18	0x3d8af837	0.067856245
19	0x3cc2acbc	0.023764007
20	0xbd14a0e2	-0.036286242
21	0xbd42c807	-0.047554042
22	0x3b0d0fda	0.002152434
23	0xbe0a8942	-0.13528922
24	0xbdec276d	-0.11530957
25	0x3c40186c	0.011724573
26	0xbd86a272	-0.06573953
27	0x3de6efb9	0.11276192
28	0xbd9113fc	-0.0708389
29	0xbdc7ac62	-0.09749676
30	0x3d40f054	0.047104195
31	0xbd8de63a	-0.06928678
32	0x3d080871	0.033211175
33	0xbd6907f6	-0.056892358
34	0xbe11564f	-0.1419308
35	0xbd9e496a	-0.07728846
36	0x3d312634	0.043249324
37	0xbd9890c7	-0.07449489
38	0xbdbf65c7	-0.09345584
39	0xbdab34b4	-0.08359662
40	0x3d024474	0.031803563
41	0x3cbf894a	0.023380894
42	0xbbd5e9a8	-0.006528098
43	0xbd8e6e55	-0.06954638
44	0x3e0af66c	0.13570565
45	0xbbfcf8f2	-0.0077201063
46	0xbcb3b7ef	-0.021938292
47	0x3dac47a4	0.08412102
48	0xbd11dc42	-0.035610445
49	0xbdd28d37	-0.10280841
50	0xbdd59dd0	-0.10430491
51	0xbd56af32	-0.052413173
52	0xbdee7a0f	-0.116443746
53	0xbdd121a8	-0.102114975
54	0xbd055048	-0.032547265
55	0xbd5db361	-0.054126147
56	0x3d489553	0.04897053
57	0xbd69b7ec	-0.057060167
58	0x3c8dd1f3	0.017312026
59	0xbd8e0e23	-0.0693629
60	0xbde31583	-0.110880874
61	0xbd2d24ae	-0.04227131
62	0x3dd44eca	0.1036659
63	0xbdfcd9a4	-0.12346199
64	0xbd875118	-0.06607264
65	0x3d80d7dd	0.06291173
66	0xbdf9f280	-0.12204456
67	0xbd748863	-0.05970038
68	0xbd20da0e	-0.039270453
69	0xbcf051e9	-0.029335933
70	0x3c9b3df3	0.018950438
71	0xbe0c707b	-0.13714783
72	0xbdf67ca6	-0.120354936
73	0xbbc2193a	-0.0059234174
74	0x3c4bf0ed	0.012447578
75	0xbd550cb1	-0.052014057
76	0xbdbcc1e9	-0.09216673
77	0xbcbe2e58	-0.023215458
78	0xbda97926	-0.0827506
79	0xbd5914cd	-0.052998353
80	0xbd2f707c	-0.042831883
81	0xbd3a43d7	-0.045474853
82	0xbe0e3c2c	-0.13890141
83	0x3c6680bc	0.014068779
84	0xbc6c78eb	-0.014433126
85	0x3cb2a4b8	0.02180706
86	0xbdf5daf4	-0.120046526
87	0xbd815d7e	-0.0631666
88	0xbde4ab93	-0.11165538
89	0xbe2634ea	-0.16231123
90	0xbd6efe23	-0.058347832
91	0xbd6d6adf	-0.05796325
92	0xbbd46b0d	-0.006482488
93	0xbdc1ec5f	-0.09468912
94	0xbcc81b61	-0.024427118
95	0xbd9d059a	-0.07667084
96	0xbdc28bd3	-0.094993256
97	0xbe2672f8	-0.16254795
98	0xbdfe1c9e	-0.12407802
99	0x3e119936	0.14218602
100	0x3dea25ec	0.11433014
101	0x3e080776	0.13284096
102	0xbdd44282	-0.10364248
103	0xbd7c6306	-0.061617874
104	0x3c2a5704	0.010396723
105	0x3ca4fe67	0.02014084
106	0x3bea90f7	0.0071583944
107	0x3cb8b75a	0.022548366
108	0xbd8d15e8	-0.06888944
109	0xbe0d8089	-0.13818564
110	0xbddc4d13	-0.10756888
111	0x3cccd2f1	0.025002928
112	0xbe2340ce	-0.1594269
113	0xbbd06588	-0.0063597597
114	0xbd911e5c	-0.07085869
115	0xbd34dce0	-0.044155955
116	0xbdd69ee0	-0.10479522
117	0x3d2f3734	0.042777255
118	0xbda36b8f	-0.079794995
119	0x3d305cdd	0.04305731
120	0xbde2e5af	-0.11078965
121	0x3c65e9f9	0.014032834
122	0xbe2831fe	-0.1642532
123	0xbd87b610	-0.066265225
124	0xbe035d94	-0.12828666
125	0x3d819a78	0.06328291
126	0xbc96f90e	-0.018429305
127	0xbe01cb3c	-0.12675184
128	0xbc08511e	-0.008320121
129	0xbe25cbf1	-0.16191079
130	0xbdd76af6	-0.10518448
131	0xbe0e8644	-0.13918406
132	0xbc02e77c	-0.0079897605
133	0x3c87b18a	0.01656415
134	0x3e0c904e	0.13726923
135	0xbc350591	-0.01104869
136	0xbce0c9f6	-0.027440052
137	0xbdf41b36	-0.119192526
138	0xbc92d7d8	-0.017925188
139	0x3de1a4bb	0.11017748
140	0xbcddaa28	-0.027058676
141	0xbe1fb1c8	-0.15595162
142	0xbc8dd92e	-0.017315473
143	0x3df4049e	0.11914943
144	0xbdd9b268	-0.106297314
145	0x3ba60993	0.0050670593
146	0xbdb964dd	-0.09052441
147	0xbdde1cea	-0.10845359
148	0x3c5bb6f8	0.013410322
149	0xbe2a33a1	-0.16621257
150	0x3ce18543	0.027529364
151	0xbe2fa969	-0.17154469
152	0xbe2209f0	-0.15824103
153	0xbda98f17	-0.08279245
154	0x3cb9998b	0.022656223
155	0xbe0e2a65	-0.1388336
156	0xbdc28574	-0.094981104
157	0x3c3e5a68	0.011618234
158	0xbd83042f	-0.06397282
159	0xbd0a97c4	-0.03383614
160	0xbc7eafc2	-0.015544834
161	0xbd5f491e	-0.05451309
162	0xbe02d387	-0.12776004
163	0xbcd3f836	-0.025875192
164	0xbd922bbb	-0.07137247
165	0xbdba0260	-0.09082484
166	0x3c36c245	0.011154716
167	0xbd5647ec	-0.052314684
168	0xbe172e7a	-0.14763823
169	0xbe0c5c69	-0.13707127
170	0xbaacde58	-0.0013188822
171	0xbbdeb2e2	-0.006796227
172	0xbe16584d	-0.14682122
173	0xbde7fe6e	-0.113278255
174	0xbb99fbd8	-0.0046992116
175	0xbda44914	-0.08021751
176	0xbcbc339c	-0.022973828
177	0xbe087442	-0.13325599
178	0xbda8ace1	-0.08236099
179	0xbc7502e0	-0.014954299
180	0xbca47f09	-0.020080106
181	0xbdcc196a	-0.09965785
182	0xbe12795b	-0.14304106
183	0xbc783a1e	-0.015150575
184	0xbd2fb3ec	-0.042896196
185	0x3a573dc8	0.0008210805
186	0xbd0b795a	-0.034051277
187	0xbd308ef7	-0.043105092
188	0xbd876179	-0.06610388
189	0xbe24c2c3	-0.1608992
190	0xbd0826d2	-0.033240147
191	0x3e09d65a	0.13460675
192	0x3d535e0c	0.051603362
193	0x3d988375	0.074469484
194	0xbd4a55c1	-0.049398188
